{"backend": "tensorflow", "config": {"input_layers": [["input_1", 0, 0]], "layers": [{"inbound_nodes": [], "config": {"dtype": "float32", "batch_input_shape": [null, 32, 32, 3], "sparse": false, "name": "input_1"}, "class_name": "InputLayer", "name": "input_1"}, {"inbound_nodes": [[["input_1", 0, 0, {}]]], "config": {"bias_constraint": null, "bias_regularizer": null, "kernel_size": [3, 3], "use_bias": false, "activation": "linear", "trainable": true, "dilation_rate": [1, 1], "dtype": "float32", "kernel_initializer": {"config": {"seed": null, "dtype": "float32", "distribution": "uniform", "mode": "fan_avg", "scale": 1.0}, "class_name": "VarianceScaling"}, "filters": 128, "padding": "same", "activity_regularizer": null, "kernel_regularizer": {"config": {"l2": 0.004999999888241291, "l1": 0.0}, "class_name": "L1L2"}, "bias_initializer": {"config": {"dtype": "float32"}, "class_name": "Zeros"}, "name": "conv0", "kernel_constraint": null, "strides": [2, 2], "data_format": "channels_last"}, "class_name": "Conv2D", "name": "conv0"}, {"inbound_nodes": [[["conv0", 0, 0, {}]]], "config": {"moving_mean_initializer": {"config": {"dtype": "float32"}, "class_name": "Zeros"}, "beta_constraint": null, "moving_variance_initializer": {"config": {"dtype": "float32"}, "class_name": "Ones"}, "dtype": "float32", "beta_regularizer": null, "momentum": 0.99, "scale": true, "axis": -1, "gamma_regularizer": null, "center": true, "name": "bn0", "gamma_initializer": {"config": {"dtype": "float32"}, "class_name": "Ones"}, "trainable": true, "gamma_constraint": null, "epsilon": 0.001, "beta_initializer": {"config": {"dtype": "float32"}, "class_name": "Zeros"}}, "class_name": "BatchNormalization", "name": "bn0"}, {"inbound_nodes": [[["bn0", 0, 0, {}]]], "config": {"dtype": "float32", "activation": "relu", "name": "relu0", "trainable": true}, "class_name": "Activation", "name": "relu0"}, {"inbound_nodes": [[["relu0", 0, 0, {}]]], "config": {"bias_constraint": null, "bias_regularizer": null, "kernel_size": [1, 1], "use_bias": false, "activation": "linear", "trainable": true, "dilation_rate": [1, 1], "dtype": "float32", "kernel_initializer": {"config": {"seed": null, "dtype": "float32", "distribution": "uniform", "mode": "fan_avg", "scale": 1.0}, "class_name": "VarianceScaling"}, "filters": 32, "padding": "valid", "activity_regularizer": null, "kernel_regularizer": {"config": {"l2": 0.004999999888241291, "l1": 0.0}, "class_name": "L1L2"}, "bias_initializer": {"config": {"dtype": "float32"}, "class_name": "Zeros"}, "name": "conv1a", "kernel_constraint": null, "strides": [1, 1], "data_format": "channels_last"}, "class_name": "Conv2D", "name": "conv1a"}, {"inbound_nodes": [[["conv1a", 0, 0, {}]]], "config": {"moving_mean_initializer": {"config": {"dtype": "float32"}, "class_name": "Zeros"}, "beta_constraint": null, "moving_variance_initializer": {"config": {"dtype": "float32"}, "class_name": "Ones"}, "dtype": "float32", "beta_regularizer": null, "momentum": 0.99, "scale": true, "axis": -1, "gamma_regularizer": null, "center": true, "name": "bn1b", "gamma_initializer": {"config": {"dtype": "float32"}, "class_name": "Ones"}, "trainable": true, "gamma_constraint": null, "epsilon": 0.001, "beta_initializer": {"config": {"dtype": "float32"}, "class_name": "Zeros"}}, "class_name": "BatchNormalization", "name": "bn1b"}, {"inbound_nodes": [[["bn1b", 0, 0, {}]]], "config": {"dtype": "float32", "activation": "relu", "name": "relu1b", "trainable": true}, "class_name": "Activation", "name": "relu1b"}, {"inbound_nodes": [[["relu1b", 0, 0, {}]]], "config": {"bias_constraint": null, "bias_regularizer": null, "kernel_size": [3, 3], "use_bias": false, "activation": "linear", "trainable": true, "dilation_rate": [1, 1], "dtype": "float32", "kernel_initializer": {"config": {"seed": null, "dtype": "float32", "distribution": "uniform", "mode": "fan_avg", "scale": 1.0}, "class_name": "VarianceScaling"}, "filters": 32, "padding": "same", "activity_regularizer": null, "kernel_regularizer": {"config": {"l2": 0.004999999888241291, "l1": 0.0}, "class_name": "L1L2"}, "bias_initializer": {"config": {"dtype": "float32"}, "class_name": "Zeros"}, "name": "conv1b", "kernel_constraint": null, "strides": [1, 1], "data_format": "channels_last"}, "class_name": "Conv2D", "name": "conv1b"}, {"inbound_nodes": [[["conv1b", 0, 0, {}]]], "config": {"moving_mean_initializer": {"config": {"dtype": "float32"}, "class_name": "Zeros"}, "beta_constraint": null, "moving_variance_initializer": {"config": {"dtype": "float32"}, "class_name": "Ones"}, "dtype": "float32", "beta_regularizer": null, "momentum": 0.99, "scale": true, "axis": -1, "gamma_regularizer": null, "center": true, "name": "bn1c", "gamma_initializer": {"config": {"dtype": "float32"}, "class_name": "Ones"}, "trainable": true, "gamma_constraint": null, "epsilon": 0.001, "beta_initializer": {"config": {"dtype": "float32"}, "class_name": "Zeros"}}, "class_name": "BatchNormalization", "name": "bn1c"}, {"inbound_nodes": [[["bn1c", 0, 0, {}]]], "config": {"dtype": "float32", "activation": "relu", "name": "relu1c", "trainable": true}, "class_name": "Activation", "name": "relu1c"}, {"inbound_nodes": [[["relu1c", 0, 0, {}]]], "config": {"bias_constraint": null, "bias_regularizer": null, "kernel_size": [1, 1], "use_bias": true, "activation": "linear", "trainable": true, "dilation_rate": [1, 1], "dtype": "float32", "kernel_initializer": {"config": {"seed": null, "dtype": "float32", "distribution": "uniform", "mode": "fan_avg", "scale": 1.0}, "class_name": "VarianceScaling"}, "filters": 128, "padding": "valid", "activity_regularizer": null, "kernel_regularizer": {"config": {"l2": 0.004999999888241291, "l1": 0.0}, "class_name": "L1L2"}, "bias_initializer": {"config": {"dtype": "float32"}, "class_name": "Zeros"}, "name": "conv1c", "kernel_constraint": null, "strides": [1, 1], "data_format": "channels_last"}, "class_name": "Conv2D", "name": "conv1c"}, {"inbound_nodes": [[["conv1c", 0, 0, {}], ["relu0", 0, 0, {}]]], "config": {"dtype": "float32", "name": "merge1", "trainable": true}, "class_name": "Add", "name": "merge1"}, {"inbound_nodes": [[["merge1", 0, 0, {}]]], "config": {"moving_mean_initializer": {"config": {"dtype": "float32"}, "class_name": "Zeros"}, "beta_constraint": null, "moving_variance_initializer": {"config": {"dtype": "float32"}, "class_name": "Ones"}, "dtype": "float32", "beta_regularizer": null, "momentum": 0.99, "scale": true, "axis": -1, "gamma_regularizer": null, "center": true, "name": "bn2a", "gamma_initializer": {"config": {"dtype": "float32"}, "class_name": "Ones"}, "trainable": true, "gamma_constraint": null, "epsilon": 0.001, "beta_initializer": {"config": {"dtype": "float32"}, "class_name": "Zeros"}}, "class_name": "BatchNormalization", "name": "bn2a"}, {"inbound_nodes": [[["bn2a", 0, 0, {}]]], "config": {"dtype": "float32", "activation": "relu", "name": "relu2a", "trainable": true}, "class_name": "Activation", "name": "relu2a"}, {"inbound_nodes": [[["relu2a", 0, 0, {}]]], "config": {"bias_constraint": null, "bias_regularizer": null, "kernel_size": [1, 1], "use_bias": false, "activation": "linear", "trainable": true, "dilation_rate": [1, 1], "dtype": "float32", "kernel_initializer": {"config": {"seed": null, "dtype": "float32", "distribution": "uniform", "mode": "fan_avg", "scale": 1.0}, "class_name": "VarianceScaling"}, "filters": 32, "padding": "valid", "activity_regularizer": null, "kernel_regularizer": {"config": {"l2": 0.004999999888241291, "l1": 0.0}, "class_name": "L1L2"}, "bias_initializer": {"config": {"dtype": "float32"}, "class_name": "Zeros"}, "name": "conv2a", "kernel_constraint": null, "strides": [1, 1], "data_format": "channels_last"}, "class_name": "Conv2D", "name": "conv2a"}, {"inbound_nodes": [[["conv2a", 0, 0, {}]]], "config": {"moving_mean_initializer": {"config": {"dtype": "float32"}, "class_name": "Zeros"}, "beta_constraint": null, "moving_variance_initializer": {"config": {"dtype": "float32"}, "class_name": "Ones"}, "dtype": "float32", "beta_regularizer": null, "momentum": 0.99, "scale": true, "axis": -1, "gamma_regularizer": null, "center": true, "name": "bn2b", "gamma_initializer": {"config": {"dtype": "float32"}, "class_name": "Ones"}, "trainable": true, "gamma_constraint": null, "epsilon": 0.001, "beta_initializer": {"config": {"dtype": "float32"}, "class_name": "Zeros"}}, "class_name": "BatchNormalization", "name": "bn2b"}, {"inbound_nodes": [[["bn2b", 0, 0, {}]]], "config": {"dtype": "float32", "activation": "relu", "name": "relu2b", "trainable": true}, "class_name": "Activation", "name": "relu2b"}, {"inbound_nodes": [[["relu2b", 0, 0, {}]]], "config": {"bias_constraint": null, "bias_regularizer": null, "kernel_size": [3, 3], "use_bias": false, "activation": "linear", "trainable": true, "dilation_rate": [1, 1], "dtype": "float32", "kernel_initializer": {"config": {"seed": null, "dtype": "float32", "distribution": "uniform", "mode": "fan_avg", "scale": 1.0}, "class_name": "VarianceScaling"}, "filters": 32, "padding": "same", "activity_regularizer": null, "kernel_regularizer": {"config": {"l2": 0.004999999888241291, "l1": 0.0}, "class_name": "L1L2"}, "bias_initializer": {"config": {"dtype": "float32"}, "class_name": "Zeros"}, "name": "conv2b", "kernel_constraint": null, "strides": [1, 1], "data_format": "channels_last"}, "class_name": "Conv2D", "name": "conv2b"}, {"inbound_nodes": [[["conv2b", 0, 0, {}]]], "config": {"moving_mean_initializer": {"config": {"dtype": "float32"}, "class_name": "Zeros"}, "beta_constraint": null, "moving_variance_initializer": {"config": {"dtype": "float32"}, "class_name": "Ones"}, "dtype": "float32", "beta_regularizer": null, "momentum": 0.99, "scale": true, "axis": -1, "gamma_regularizer": null, "center": true, "name": "bn2c", "gamma_initializer": {"config": {"dtype": "float32"}, "class_name": "Ones"}, "trainable": true, "gamma_constraint": null, "epsilon": 0.001, "beta_initializer": {"config": {"dtype": "float32"}, "class_name": "Zeros"}}, "class_name": "BatchNormalization", "name": "bn2c"}, {"inbound_nodes": [[["bn2c", 0, 0, {}]]], "config": {"dtype": "float32", "activation": "relu", "name": "relu2c", "trainable": true}, "class_name": "Activation", "name": "relu2c"}, {"inbound_nodes": [[["relu2c", 0, 0, {}]]], "config": {"bias_constraint": null, "bias_regularizer": null, "kernel_size": [1, 1], "use_bias": true, "activation": "linear", "trainable": true, "dilation_rate": [1, 1], "dtype": "float32", "kernel_initializer": {"config": {"seed": null, "dtype": "float32", "distribution": "uniform", "mode": "fan_avg", "scale": 1.0}, "class_name": "VarianceScaling"}, "filters": 128, "padding": "valid", "activity_regularizer": null, "kernel_regularizer": {"config": {"l2": 0.004999999888241291, "l1": 0.0}, "class_name": "L1L2"}, "bias_initializer": {"config": {"dtype": "float32"}, "class_name": "Zeros"}, "name": "conv2c", "kernel_constraint": null, "strides": [1, 1], "data_format": "channels_last"}, "class_name": "Conv2D", "name": "conv2c"}, {"inbound_nodes": [[["conv2c", 0, 0, {}], ["merge1", 0, 0, {}]]], "config": {"dtype": "float32", "name": "merge2", "trainable": true}, "class_name": "Add", "name": "merge2"}, {"inbound_nodes": [[["merge2", 0, 0, {}]]], "config": {"moving_mean_initializer": {"config": {"dtype": "float32"}, "class_name": "Zeros"}, "beta_constraint": null, "moving_variance_initializer": {"config": {"dtype": "float32"}, "class_name": "Ones"}, "dtype": "float32", "beta_regularizer": null, "momentum": 0.99, "scale": true, "axis": -1, "gamma_regularizer": null, "center": true, "name": "bn3a", "gamma_initializer": {"config": {"dtype": "float32"}, "class_name": "Ones"}, "trainable": true, "gamma_constraint": null, "epsilon": 0.001, "beta_initializer": {"config": {"dtype": "float32"}, "class_name": "Zeros"}}, "class_name": "BatchNormalization", "name": "bn3a"}, {"inbound_nodes": [[["bn3a", 0, 0, {}]]], "config": {"dtype": "float32", "activation": "relu", "name": "relu3a", "trainable": true}, "class_name": "Activation", "name": "relu3a"}, {"inbound_nodes": [[["relu3a", 0, 0, {}]]], "config": {"bias_constraint": null, "bias_regularizer": null, "kernel_size": [1, 1], "use_bias": false, "activation": "linear", "trainable": true, "dilation_rate": [1, 1], "dtype": "float32", "kernel_initializer": {"config": {"seed": null, "dtype": "float32", "distribution": "uniform", "mode": "fan_avg", "scale": 1.0}, "class_name": "VarianceScaling"}, "filters": 32, "padding": "valid", "activity_regularizer": null, "kernel_regularizer": {"config": {"l2": 0.004999999888241291, "l1": 0.0}, "class_name": "L1L2"}, "bias_initializer": {"config": {"dtype": "float32"}, "class_name": "Zeros"}, "name": "conv3a", "kernel_constraint": null, "strides": [1, 1], "data_format": "channels_last"}, "class_name": "Conv2D", "name": "conv3a"}, {"inbound_nodes": [[["conv3a", 0, 0, {}]]], "config": {"moving_mean_initializer": {"config": {"dtype": "float32"}, "class_name": "Zeros"}, "beta_constraint": null, "moving_variance_initializer": {"config": {"dtype": "float32"}, "class_name": "Ones"}, "dtype": "float32", "beta_regularizer": null, "momentum": 0.99, "scale": true, "axis": -1, "gamma_regularizer": null, "center": true, "name": "bn3b", "gamma_initializer": {"config": {"dtype": "float32"}, "class_name": "Ones"}, "trainable": true, "gamma_constraint": null, "epsilon": 0.001, "beta_initializer": {"config": {"dtype": "float32"}, "class_name": "Zeros"}}, "class_name": "BatchNormalization", "name": "bn3b"}, {"inbound_nodes": [[["bn3b", 0, 0, {}]]], "config": {"dtype": "float32", "activation": "relu", "name": "relu3b", "trainable": true}, "class_name": "Activation", "name": "relu3b"}, {"inbound_nodes": [[["relu3b", 0, 0, {}]]], "config": {"bias_constraint": null, "bias_regularizer": null, "kernel_size": [3, 3], "use_bias": false, "activation": "linear", "trainable": true, "dilation_rate": [1, 1], "dtype": "float32", "kernel_initializer": {"config": {"seed": null, "dtype": "float32", "distribution": "uniform", "mode": "fan_avg", "scale": 1.0}, "class_name": "VarianceScaling"}, "filters": 32, "padding": "same", "activity_regularizer": null, "kernel_regularizer": {"config": {"l2": 0.004999999888241291, "l1": 0.0}, "class_name": "L1L2"}, "bias_initializer": {"config": {"dtype": "float32"}, "class_name": "Zeros"}, "name": "conv3b", "kernel_constraint": null, "strides": [1, 1], "data_format": "channels_last"}, "class_name": "Conv2D", "name": "conv3b"}, {"inbound_nodes": [[["conv3b", 0, 0, {}]]], "config": {"moving_mean_initializer": {"config": {"dtype": "float32"}, "class_name": "Zeros"}, "beta_constraint": null, "moving_variance_initializer": {"config": {"dtype": "float32"}, "class_name": "Ones"}, "dtype": "float32", "beta_regularizer": null, "momentum": 0.99, "scale": true, "axis": -1, "gamma_regularizer": null, "center": true, "name": "bn3c", "gamma_initializer": {"config": {"dtype": "float32"}, "class_name": "Ones"}, "trainable": true, "gamma_constraint": null, "epsilon": 0.001, "beta_initializer": {"config": {"dtype": "float32"}, "class_name": "Zeros"}}, "class_name": "BatchNormalization", "name": "bn3c"}, {"inbound_nodes": [[["bn3c", 0, 0, {}]]], "config": {"dtype": "float32", "activation": "relu", "name": "relu3c", "trainable": true}, "class_name": "Activation", "name": "relu3c"}, {"inbound_nodes": [[["relu3c", 0, 0, {}]]], "config": {"bias_constraint": null, "bias_regularizer": null, "kernel_size": [1, 1], "use_bias": true, "activation": "linear", "trainable": true, "dilation_rate": [1, 1], "dtype": "float32", "kernel_initializer": {"config": {"seed": null, "dtype": "float32", "distribution": "uniform", "mode": "fan_avg", "scale": 1.0}, "class_name": "VarianceScaling"}, "filters": 128, "padding": "valid", "activity_regularizer": null, "kernel_regularizer": {"config": {"l2": 0.004999999888241291, "l1": 0.0}, "class_name": "L1L2"}, "bias_initializer": {"config": {"dtype": "float32"}, "class_name": "Zeros"}, "name": "conv3c", "kernel_constraint": null, "strides": [1, 1], "data_format": "channels_last"}, "class_name": "Conv2D", "name": "conv3c"}, {"inbound_nodes": [[["conv3c", 0, 0, {}], ["merge2", 0, 0, {}]]], "config": {"dtype": "float32", "name": "merge3", "trainable": true}, "class_name": "Add", "name": "merge3"}, {"inbound_nodes": [[["merge3", 0, 0, {}]]], "config": {"moving_mean_initializer": {"config": {"dtype": "float32"}, "class_name": "Zeros"}, "beta_constraint": null, "moving_variance_initializer": {"config": {"dtype": "float32"}, "class_name": "Ones"}, "dtype": "float32", "beta_regularizer": null, "momentum": 0.99, "scale": true, "axis": -1, "gamma_regularizer": null, "center": true, "name": "bn4a", "gamma_initializer": {"config": {"dtype": "float32"}, "class_name": "Ones"}, "trainable": true, "gamma_constraint": null, "epsilon": 0.001, "beta_initializer": {"config": {"dtype": "float32"}, "class_name": "Zeros"}}, "class_name": "BatchNormalization", "name": "bn4a"}, {"inbound_nodes": [[["bn4a", 0, 0, {}]]], "config": {"dtype": "float32", "activation": "relu", "name": "relu4a", "trainable": true}, "class_name": "Activation", "name": "relu4a"}, {"inbound_nodes": [[["relu4a", 0, 0, {}]]], "config": {"bias_constraint": null, "bias_regularizer": null, "kernel_size": [1, 1], "use_bias": false, "activation": "linear", "trainable": true, "dilation_rate": [1, 1], "dtype": "float32", "kernel_initializer": {"config": {"seed": null, "dtype": "float32", "distribution": "uniform", "mode": "fan_avg", "scale": 1.0}, "class_name": "VarianceScaling"}, "filters": 32, "padding": "valid", "activity_regularizer": null, "kernel_regularizer": {"config": {"l2": 0.004999999888241291, "l1": 0.0}, "class_name": "L1L2"}, "bias_initializer": {"config": {"dtype": "float32"}, "class_name": "Zeros"}, "name": "conv4a", "kernel_constraint": null, "strides": [1, 1], "data_format": "channels_last"}, "class_name": "Conv2D", "name": "conv4a"}, {"inbound_nodes": [[["conv4a", 0, 0, {}]]], "config": {"moving_mean_initializer": {"config": {"dtype": "float32"}, "class_name": "Zeros"}, "beta_constraint": null, "moving_variance_initializer": {"config": {"dtype": "float32"}, "class_name": "Ones"}, "dtype": "float32", "beta_regularizer": null, "momentum": 0.99, "scale": true, "axis": -1, "gamma_regularizer": null, "center": true, "name": "bn4b", "gamma_initializer": {"config": {"dtype": "float32"}, "class_name": "Ones"}, "trainable": true, "gamma_constraint": null, "epsilon": 0.001, "beta_initializer": {"config": {"dtype": "float32"}, "class_name": "Zeros"}}, "class_name": "BatchNormalization", "name": "bn4b"}, {"inbound_nodes": [[["bn4b", 0, 0, {}]]], "config": {"dtype": "float32", "activation": "relu", "name": "relu4b", "trainable": true}, "class_name": "Activation", "name": "relu4b"}, {"inbound_nodes": [[["relu4b", 0, 0, {}]]], "config": {"bias_constraint": null, "bias_regularizer": null, "kernel_size": [3, 3], "use_bias": false, "activation": "linear", "trainable": true, "dilation_rate": [1, 1], "dtype": "float32", "kernel_initializer": {"config": {"seed": null, "dtype": "float32", "distribution": "uniform", "mode": "fan_avg", "scale": 1.0}, "class_name": "VarianceScaling"}, "filters": 32, "padding": "same", "activity_regularizer": null, "kernel_regularizer": {"config": {"l2": 0.004999999888241291, "l1": 0.0}, "class_name": "L1L2"}, "bias_initializer": {"config": {"dtype": "float32"}, "class_name": "Zeros"}, "name": "conv4b", "kernel_constraint": null, "strides": [1, 1], "data_format": "channels_last"}, "class_name": "Conv2D", "name": "conv4b"}, {"inbound_nodes": [[["conv4b", 0, 0, {}]]], "config": {"moving_mean_initializer": {"config": {"dtype": "float32"}, "class_name": "Zeros"}, "beta_constraint": null, "moving_variance_initializer": {"config": {"dtype": "float32"}, "class_name": "Ones"}, "dtype": "float32", "beta_regularizer": null, "momentum": 0.99, "scale": true, "axis": -1, "gamma_regularizer": null, "center": true, "name": "bn4c", "gamma_initializer": {"config": {"dtype": "float32"}, "class_name": "Ones"}, "trainable": true, "gamma_constraint": null, "epsilon": 0.001, "beta_initializer": {"config": {"dtype": "float32"}, "class_name": "Zeros"}}, "class_name": "BatchNormalization", "name": "bn4c"}, {"inbound_nodes": [[["bn4c", 0, 0, {}]]], "config": {"dtype": "float32", "activation": "relu", "name": "relu4c", "trainable": true}, "class_name": "Activation", "name": "relu4c"}, {"inbound_nodes": [[["relu4c", 0, 0, {}]]], "config": {"bias_constraint": null, "bias_regularizer": null, "kernel_size": [1, 1], "use_bias": true, "activation": "linear", "trainable": true, "dilation_rate": [1, 1], "dtype": "float32", "kernel_initializer": {"config": {"seed": null, "dtype": "float32", "distribution": "uniform", "mode": "fan_avg", "scale": 1.0}, "class_name": "VarianceScaling"}, "filters": 128, "padding": "valid", "activity_regularizer": null, "kernel_regularizer": {"config": {"l2": 0.004999999888241291, "l1": 0.0}, "class_name": "L1L2"}, "bias_initializer": {"config": {"dtype": "float32"}, "class_name": "Zeros"}, "name": "conv4c", "kernel_constraint": null, "strides": [1, 1], "data_format": "channels_last"}, "class_name": "Conv2D", "name": "conv4c"}, {"inbound_nodes": [[["conv4c", 0, 0, {}], ["merge3", 0, 0, {}]]], "config": {"dtype": "float32", "name": "merge4", "trainable": true}, "class_name": "Add", "name": "merge4"}, {"inbound_nodes": [[["merge4", 0, 0, {}]]], "config": {"moving_mean_initializer": {"config": {"dtype": "float32"}, "class_name": "Zeros"}, "beta_constraint": null, "moving_variance_initializer": {"config": {"dtype": "float32"}, "class_name": "Ones"}, "dtype": "float32", "beta_regularizer": null, "momentum": 0.99, "scale": true, "axis": -1, "gamma_regularizer": null, "center": true, "name": "bn5a", "gamma_initializer": {"config": {"dtype": "float32"}, "class_name": "Ones"}, "trainable": true, "gamma_constraint": null, "epsilon": 0.001, "beta_initializer": {"config": {"dtype": "float32"}, "class_name": "Zeros"}}, "class_name": "BatchNormalization", "name": "bn5a"}, {"inbound_nodes": [[["bn5a", 0, 0, {}]]], "config": {"dtype": "float32", "activation": "relu", "name": "relu5a", "trainable": true}, "class_name": "Activation", "name": "relu5a"}, {"inbound_nodes": [[["relu5a", 0, 0, {}]]], "config": {"bias_constraint": null, "bias_regularizer": null, "kernel_size": [1, 1], "use_bias": false, "activation": "linear", "trainable": true, "dilation_rate": [1, 1], "dtype": "float32", "kernel_initializer": {"config": {"seed": null, "dtype": "float32", "distribution": "uniform", "mode": "fan_avg", "scale": 1.0}, "class_name": "VarianceScaling"}, "filters": 32, "padding": "valid", "activity_regularizer": null, "kernel_regularizer": {"config": {"l2": 0.004999999888241291, "l1": 0.0}, "class_name": "L1L2"}, "bias_initializer": {"config": {"dtype": "float32"}, "class_name": "Zeros"}, "name": "conv5a", "kernel_constraint": null, "strides": [1, 1], "data_format": "channels_last"}, "class_name": "Conv2D", "name": "conv5a"}, {"inbound_nodes": [[["conv5a", 0, 0, {}]]], "config": {"moving_mean_initializer": {"config": {"dtype": "float32"}, "class_name": "Zeros"}, "beta_constraint": null, "moving_variance_initializer": {"config": {"dtype": "float32"}, "class_name": "Ones"}, "dtype": "float32", "beta_regularizer": null, "momentum": 0.99, "scale": true, "axis": -1, "gamma_regularizer": null, "center": true, "name": "bn5b", "gamma_initializer": {"config": {"dtype": "float32"}, "class_name": "Ones"}, "trainable": true, "gamma_constraint": null, "epsilon": 0.001, "beta_initializer": {"config": {"dtype": "float32"}, "class_name": "Zeros"}}, "class_name": "BatchNormalization", "name": "bn5b"}, {"inbound_nodes": [[["bn5b", 0, 0, {}]]], "config": {"dtype": "float32", "activation": "relu", "name": "relu5b", "trainable": true}, "class_name": "Activation", "name": "relu5b"}, {"inbound_nodes": [[["relu5b", 0, 0, {}]]], "config": {"bias_constraint": null, "bias_regularizer": null, "kernel_size": [3, 3], "use_bias": false, "activation": "linear", "trainable": true, "dilation_rate": [1, 1], "dtype": "float32", "kernel_initializer": {"config": {"seed": null, "dtype": "float32", "distribution": "uniform", "mode": "fan_avg", "scale": 1.0}, "class_name": "VarianceScaling"}, "filters": 32, "padding": "same", "activity_regularizer": null, "kernel_regularizer": {"config": {"l2": 0.004999999888241291, "l1": 0.0}, "class_name": "L1L2"}, "bias_initializer": {"config": {"dtype": "float32"}, "class_name": "Zeros"}, "name": "conv5b", "kernel_constraint": null, "strides": [1, 1], "data_format": "channels_last"}, "class_name": "Conv2D", "name": "conv5b"}, {"inbound_nodes": [[["conv5b", 0, 0, {}]]], "config": {"moving_mean_initializer": {"config": {"dtype": "float32"}, "class_name": "Zeros"}, "beta_constraint": null, "moving_variance_initializer": {"config": {"dtype": "float32"}, "class_name": "Ones"}, "dtype": "float32", "beta_regularizer": null, "momentum": 0.99, "scale": true, "axis": -1, "gamma_regularizer": null, "center": true, "name": "bn5c", "gamma_initializer": {"config": {"dtype": "float32"}, "class_name": "Ones"}, "trainable": true, "gamma_constraint": null, "epsilon": 0.001, "beta_initializer": {"config": {"dtype": "float32"}, "class_name": "Zeros"}}, "class_name": "BatchNormalization", "name": "bn5c"}, {"inbound_nodes": [[["bn5c", 0, 0, {}]]], "config": {"dtype": "float32", "activation": "relu", "name": "relu5c", "trainable": true}, "class_name": "Activation", "name": "relu5c"}, {"inbound_nodes": [[["relu5c", 0, 0, {}]]], "config": {"bias_constraint": null, "bias_regularizer": null, "kernel_size": [1, 1], "use_bias": true, "activation": "linear", "trainable": true, "dilation_rate": [1, 1], "dtype": "float32", "kernel_initializer": {"config": {"seed": null, "dtype": "float32", "distribution": "uniform", "mode": "fan_avg", "scale": 1.0}, "class_name": "VarianceScaling"}, "filters": 128, "padding": "valid", "activity_regularizer": null, "kernel_regularizer": {"config": {"l2": 0.004999999888241291, "l1": 0.0}, "class_name": "L1L2"}, "bias_initializer": {"config": {"dtype": "float32"}, "class_name": "Zeros"}, "name": "conv5c", "kernel_constraint": null, "strides": [1, 1], "data_format": "channels_last"}, "class_name": "Conv2D", "name": "conv5c"}, {"inbound_nodes": [[["conv5c", 0, 0, {}], ["merge4", 0, 0, {}]]], "config": {"dtype": "float32", "name": "merge5", "trainable": true}, "class_name": "Add", "name": "merge5"}, {"inbound_nodes": [[["merge5", 0, 0, {}]]], "config": {"moving_mean_initializer": {"config": {"dtype": "float32"}, "class_name": "Zeros"}, "beta_constraint": null, "moving_variance_initializer": {"config": {"dtype": "float32"}, "class_name": "Ones"}, "dtype": "float32", "beta_regularizer": null, "momentum": 0.99, "scale": true, "axis": -1, "gamma_regularizer": null, "center": true, "name": "bnF", "gamma_initializer": {"config": {"dtype": "float32"}, "class_name": "Ones"}, "trainable": true, "gamma_constraint": null, "epsilon": 0.001, "beta_initializer": {"config": {"dtype": "float32"}, "class_name": "Zeros"}}, "class_name": "BatchNormalization", "name": "bnF"}, {"inbound_nodes": [[["bnF", 0, 0, {}]]], "config": {"dtype": "float32", "activation": "relu", "name": "reluF", "trainable": true}, "class_name": "Activation", "name": "reluF"}, {"inbound_nodes": [[["reluF", 0, 0, {}]]], "config": {"pool_size": [16.0, 16.0], "padding": "valid", "data_format": "channels_last", "name": "avg_pool", "dtype": "float32", "strides": [16.0, 16.0], "trainable": true}, "class_name": "AveragePooling2D", "name": "avg_pool"}, {"inbound_nodes": [[["avg_pool", 0, 0, {}]]], "config": {"dtype": "float32", "name": "flat", "trainable": true}, "class_name": "Flatten", "name": "flat"}, {"inbound_nodes": [[["flat", 0, 0, {}]]], "config": {"bias_constraint": null, "trainable": true, "activity_regularizer": null, "dtype": "float32", "kernel_initializer": {"config": {"seed": null, "dtype": "float32", "distribution": "uniform", "mode": "fan_avg", "scale": 1.0}, "class_name": "VarianceScaling"}, "bias_regularizer": null, "kernel_constraint": null, "kernel_regularizer": null, "bias_initializer": {"config": {"dtype": "float32"}, "class_name": "Zeros"}, "name": "fc10", "units": 5, "use_bias": true, "activation": "softmax"}, "class_name": "Dense", "name": "fc10"}], "name": "rnpa", "output_layers": [["fc10", 0, 0]]}, "class_name": "Model", "keras_version": "2.0.8-tf"}